Cluster_Model.pth (torch, 2005 bytes, 2 tensors)

linear.weight f4 [4, 3]
000000 3b ff 7f 3e e3 df 1a 3d 92 db 24 3e a9 e6 ec 3d
       0.24999706 0.03781117 0.16099384 0.115674324
000010 78 23 22 3d 43 69 a4 be 4b 7b 2f be bd c9 86 3e
       0.039584607 -0.32111558 -0.17136876 0.2632579
000020 6c 5f 8c 3d 1c f7 46 be c2 70 ae be 57 9d bb 3d
       0.06854138 -0.19430202 -0.34070402 0.091608696

linear.bias f4 [4]
000000 25 cd 28 3e a5 92 aa 3e 9f 8e 7d 3e 3a 37 82 3e
       0.16484506 0.33315006 0.24761437 0.2543276
